{"modelTopology":{"class_name":"Sequential","config":{"name":"sequential_3","layers":[{"class_name":"Dense","config":{"units":512,"activation":"relu","use_bias":true,"kernel_initializer":{"class_name":"VarianceScaling","config":{"scale":1,"mode":"fan_avg","distribution":"normal","seed":null}},"bias_initializer":{"class_name":"Zeros","config":{}},"kernel_regularizer":null,"bias_regularizer":null,"activity_regularizer":null,"kernel_constraint":null,"bias_constraint":null,"name":"dense_Dense1","trainable":true,"batch_input_shape":[null,53],"dtype":"float32"}},{"class_name":"Dense","config":{"units":512,"activation":"relu","use_bias":true,"kernel_initializer":{"class_name":"VarianceScaling","config":{"scale":1,"mode":"fan_avg","distribution":"normal","seed":null}},"bias_initializer":{"class_name":"Zeros","config":{}},"kernel_regularizer":null,"bias_regularizer":null,"activity_regularizer":null,"kernel_constraint":null,"bias_constraint":null,"name":"dense_Dense2","trainable":true}},{"class_name":"Dense","config":{"units":8,"activation":"softmax","use_bias":true,"kernel_initializer":{"class_name":"VarianceScaling","config":{"scale":1,"mode":"fan_avg","distribution":"normal","seed":null}},"bias_initializer":{"class_name":"Zeros","config":{}},"kernel_regularizer":null,"bias_regularizer":null,"activity_regularizer":null,"kernel_constraint":null,"bias_constraint":null,"name":"dense_Dense3","trainable":true}}]},"keras_version":"tfjs-layers 1.7.2","backend":"tensor_flow.js"},"weightsManifest":[{"paths":["./model.weights.bin"],"weights":[{"name":"dense_Dense1/kernel","shape":[53,512],"dtype":"float32"},{"name":"dense_Dense1/bias","shape":[512],"dtype":"float32"},{"name":"dense_Dense2/kernel","shape":[512,512],"dtype":"float32"},{"name":"dense_Dense2/bias","shape":[512],"dtype":"float32"},{"name":"dense_Dense3/kernel","shape":[512,8],"dtype":"float32"},{"name":"dense_Dense3/bias","shape":[8],"dtype":"float32"}]}]}