{"modelTopology":{"class_name":"Sequential","config":{"name":"sequential_4","layers":[{"class_name":"Dense","config":{"units":4,"activation":"relu","use_bias":true,"kernel_initializer":{"class_name":"VarianceScaling","config":{"scale":1,"mode":"fan_avg","distribution":"normal","seed":null}},"bias_initializer":{"class_name":"Zeros","config":{}},"kernel_regularizer":null,"bias_regularizer":null,"activity_regularizer":null,"kernel_constraint":null,"bias_constraint":null,"name":"dense_Dense6","trainable":true,"batch_input_shape":[null,53],"dtype":"float32"}},{"class_name":"Dense","config":{"units":4,"activation":"softmax","use_bias":true,"kernel_initializer":{"class_name":"VarianceScaling","config":{"scale":1,"mode":"fan_avg","distribution":"normal","seed":null}},"bias_initializer":{"class_name":"Zeros","config":{}},"kernel_regularizer":null,"bias_regularizer":null,"activity_regularizer":null,"kernel_constraint":null,"bias_constraint":null,"name":"dense_Dense7","trainable":true}}]},"keras_version":"tfjs-layers 1.7.2","backend":"tensor_flow.js"},"weightsManifest":[{"paths":["./model.weights.bin"],"weights":[{"name":"dense_Dense6/kernel","shape":[53,4],"dtype":"float32"},{"name":"dense_Dense6/bias","shape":[4],"dtype":"float32"},{"name":"dense_Dense7/kernel","shape":[4,4],"dtype":"float32"},{"name":"dense_Dense7/bias","shape":[4],"dtype":"float32"}]}]}